…
data":{"id":"tkjfzHJDNBH9","colab":{"base_uri":"https://localhost:8080/"},"executionInfo":{"status":"ok","timestamp":1680288936240,"user_tz":-120,"elapsed":447,"user":{"displayName":"Jalil","userId":"10356170175071400146"}},"outputId":"a6468f7d-6d2b-4238-e473-e348658fb342"},"outputs":[{"output_type":"stream","name":"stdout","text":["Model: \"sequential\"\n","_________________________________________________________________\n"," Layer (type)                Output Shape              Param #   \n","=================================================================\n"," conv2d (Conv2D)             (None, 222, 222, 32)      896       \n","                                                                 \n"," max_pooling2d (MaxPooling2D  (None, 111, 111, 32)     0         \n"," )                                                               \n","                                                                 \n"," dropout (Dropout)           (None, 111, 111, 32)      0         \n","                                                                 \n"," conv2d_1 (Conv2D)           (None, 109, 109, 64)      18496     \n","                                                                 \n"," max_pooling2d_1 (MaxPooling  (None, 54, 54, 64)       0         \n"," 2D)                                                             \n","                                                                 \n"," dropout_1 (Dropout)         (None, 54, 54, 64)        0         \n","                                                                 \n"," conv2d_2 (Conv2D)           (None, 52, 52, 128)       73856     \n","                                                                 \n"," max_pooling2d_2 (MaxPooling  (None, 26, 26, 128)      0         \n"," 2D)                                                             \n","                                                                 \n"," dropout_2 (Dropout)         (None, 26, 26, 128)       0         \n","                                                                 \n"," conv2d_3 (Conv2D)           (None, 22, 22, 16)        51216     \n","                                                                 \n"," max_pooling2d_3 (MaxPooling  (None, 11, 11, 16)       0         \n"," 2D)                                                             \n","                                                                 \n"," flatten (Flatten)           (None, 1936)              0         \n","                                                                 \n"," dense (Dense)               (None, 224)               433888    \n","                                                                 \n"," dense_1 (Dense)             (None, 1)                 225       \n","                                                                 \n","=================================================================\n","Total params: 578,577\n","Trainable params: 578,577\n","Non-trainable params: 0\n","_________________________________________________________________\n"]}],"source":["model.summary()"]},{"cell_type":"markdown","source":["# Plotting the Performance"
…
